# Ultralytics YOLO 🚀, AGPL-3.0 license
# Custom YOLO11s for Multispectral (4 channels)

# Parameters
nc: 4  # Số class 
ch: 4  # <--- Khai báo input là 4 kênh (R, G, NIR, NDVI)

# YOLO11s scales
scales:
  # [depth, width, max_channels]
  s: [0.50, 0.50, 1024]

# Backbone
backbone:
  # [from, repeats, module, args]
  - [-1, 1, Conv, [64, 3, 2]] # 0-P1/2
  - [-1, 1, Conv, [128, 3, 2]] # 1-P2/4
  - [-1, 1, C3k2, [256, False, 0.25]]
  - [-1, 1, Conv, [256, 3, 2]] # 3-P3/8
  - [-1, 1, C3k2, [256, False, 0.25]]
  - [-1, 1, Conv, [512, 3, 2]] # 5-P4/16
  - [-1, 1, C3k2, [512, True]]
  - [-1, 1, Conv, [1024, 3, 2]] # 7-P5/32
  - [-1, 1, C3k2, [1024, True]]
  - [-1, 1, SPPF, [1024, 5]] # 9

# Head
head:
  - [-1, 1, nn.Upsample, [None, 2, 'nearest']]
  - [[-1, 6], 1, Concat, [1]] # cat backbone P4
  - [-1, 1, C3k2, [512, False]] # 12

  - [-1, 1, nn.Upsample, [None, 2, 'nearest']]
  - [[-1, 4], 1, Concat, [1]] # cat backbone P3
  - [-1, 1, C3k2, [256, False]] # 15 (P3/8-small)

  - [-1, 1, Conv, [256, 3, 2]]
  - [[-1, 12], 1, Concat, [1]] # cat head P4
  - [-1, 1, C3k2, [512, False]] # 18 (P4/16-medium)

  - [-1, 1, Conv, [512, 3, 2]]
  - [[-1, 9], 1, Concat, [1]] # cat head P5
  - [-1, 1, C3k2, [1024, True]] # 21 (P5/32-large)

  - [[15, 18, 21], 1, Detect, [nc]] # Detect(P3, P4, P5)
